{
	"nodes":[
		{"op":"null","name":"Input","inputs":[]},
		{"op":"null","name":"Extractor.1.Gamma","inputs":[]},
		{"op":"null","name":"Extractor.1.Beta","inputs":[]},
		{"op":"null","name":"Extractor.1.MovingMean","inputs":[]},
		{"op":"null","name":"Extractor.1.MovingVariance","inputs":[]},
		{"op":"BatchNorm","name":"Extractor.1","attrs":{"axis":"1","eps":"0.1e-1","fix_gamma":"false","momentum":"0.9e0","use_global_stats":"false"},"inputs":[[0,0,0],[1,0,0],[2,0,0],[3,0,0],[4,0,0]]},
		{"op":"null","name":"Extractor.2.1.Weights","inputs":[]},
		{"op":"Convolution","name":"Extractor.2.1","attrs":{"dilate":"(1, 1)","kernel":"(7, 7)","layout":"None","no_bias":"True","num_filter":"64","num_group":"1","pad":"(3, 3)","stride":"(2, 2)"},"inputs":[[5,0,0],[6,0,0]]},
		{"op":"null","name":"Extractor.2.2.Gamma","inputs":[]},
		{"op":"null","name":"Extractor.2.2.Beta","inputs":[]},
		{"op":"null","name":"Extractor.2.2.MovingMean","inputs":[]},
		{"op":"null","name":"Extractor.2.2.MovingVariance","inputs":[]},
		{"op":"BatchNorm","name":"Extractor.2.2","attrs":{"axis":"1","eps":"0.1e-2","fix_gamma":"false","momentum":"0.9e0","use_global_stats":"false"},"inputs":[[7,0,0],[8,0,0],[9,0,0],[10,0,0],[11,0,0]]},
		{"op":"relu","name":"Extractor.2.3.0","inputs":[[12,0,0]]},
		{"op":"Pooling","name":"Extractor.3","attrs":{"global_pool":"False","kernel":"(3, 3)","pad":"(1, 1)","pool_type":"max","pooling_convention":"valid","stride":"(2, 2)"},"inputs":[[13,0,0]]},
		{"op":"null","name":"Extractor.4.1.1.1.Weights","inputs":[]},
		{"op":"Convolution","name":"Extractor.4.1.1.1","attrs":{"dilate":"(1, 1)","kernel":"(3, 3)","layout":"None","no_bias":"True","num_filter":"64","num_group":"1","pad":"(1, 1)","stride":"(1, 1)"},"inputs":[[14,0,0],[15,0,0]]},
		{"op":"null","name":"Extractor.4.1.1.2.Gamma","inputs":[]},
		{"op":"null","name":"Extractor.4.1.1.2.Beta","inputs":[]},
		{"op":"null","name":"Extractor.4.1.1.2.MovingMean","inputs":[]},
		{"op":"null","name":"Extractor.4.1.1.2.MovingVariance","inputs":[]},
		{"op":"BatchNorm","name":"Extractor.4.1.1.2","attrs":{"axis":"1","eps":"0.1e-2","fix_gamma":"false","momentum":"0.9e0","use_global_stats":"false"},"inputs":[[16,0,0],[17,0,0],[18,0,0],[19,0,0],[20,0,0]]},
		{"op":"relu","name":"Extractor.4.1.1.3.0","inputs":[[21,0,0]]},
		{"op":"null","name":"Extractor.4.1.1.4.Weights","inputs":[]},
		{"op":"Convolution","name":"Extractor.4.1.1.4","attrs":{"dilate":"(1, 1)","kernel":"(3, 3)","layout":"None","no_bias":"True","num_filter":"64","num_group":"1","pad":"(1, 1)","stride":"(1, 1)"},"inputs":[[22,0,0],[23,0,0]]},
		{"op":"null","name":"Extractor.4.1.1.5.Gamma","inputs":[]},
		{"op":"null","name":"Extractor.4.1.1.5.Beta","inputs":[]},
		{"op":"null","name":"Extractor.4.1.1.5.MovingMean","inputs":[]},
		{"op":"null","name":"Extractor.4.1.1.5.MovingVariance","inputs":[]},
		{"op":"BatchNorm","name":"Extractor.4.1.1.5","attrs":{"axis":"1","eps":"0.1e-2","fix_gamma":"false","momentum":"0.9e0","use_global_stats":"false"},"inputs":[[24,0,0],[25,0,0],[26,0,0],[27,0,0],[28,0,0]]},
		{"op":"relu","name":"Extractor.4.1.1.6.0","inputs":[[29,0,0]]},
		{"op":"elemwise_add","name":"Extractor.4.1.2.0","inputs":[[14,0,0],[30,0,0]]},
		{"op":"relu","name":"Extractor.4.1.3.0","inputs":[[31,0,0]]},
		{"op":"null","name":"Extractor.4.2.1.1.Weights","inputs":[]},
		{"op":"Convolution","name":"Extractor.4.2.1.1","attrs":{"dilate":"(1, 1)","kernel":"(3, 3)","layout":"None","no_bias":"True","num_filter":"64","num_group":"1","pad":"(1, 1)","stride":"(1, 1)"},"inputs":[[32,0,0],[33,0,0]]},
		{"op":"null","name":"Extractor.4.2.1.2.Gamma","inputs":[]},
		{"op":"null","name":"Extractor.4.2.1.2.Beta","inputs":[]},
		{"op":"null","name":"Extractor.4.2.1.2.MovingMean","inputs":[]},
		{"op":"null","name":"Extractor.4.2.1.2.MovingVariance","inputs":[]},
		{"op":"BatchNorm","name":"Extractor.4.2.1.2","attrs":{"axis":"1","eps":"0.1e-2","fix_gamma":"false","momentum":"0.9e0","use_global_stats":"false"},"inputs":[[34,0,0],[35,0,0],[36,0,0],[37,0,0],[38,0,0]]},
		{"op":"relu","name":"Extractor.4.2.1.3.0","inputs":[[39,0,0]]},
		{"op":"null","name":"Extractor.4.2.1.4.Weights","inputs":[]},
		{"op":"Convolution","name":"Extractor.4.2.1.4","attrs":{"dilate":"(1, 1)","kernel":"(3, 3)","layout":"None","no_bias":"True","num_filter":"64","num_group":"1","pad":"(1, 1)","stride":"(1, 1)"},"inputs":[[40,0,0],[41,0,0]]},
		{"op":"null","name":"Extractor.4.2.1.5.Gamma","inputs":[]},
		{"op":"null","name":"Extractor.4.2.1.5.Beta","inputs":[]},
		{"op":"null","name":"Extractor.4.2.1.5.MovingMean","inputs":[]},
		{"op":"null","name":"Extractor.4.2.1.5.MovingVariance","inputs":[]},
		{"op":"BatchNorm","name":"Extractor.4.2.1.5","attrs":{"axis":"1","eps":"0.1e-2","fix_gamma":"false","momentum":"0.9e0","use_global_stats":"false"},"inputs":[[42,0,0],[43,0,0],[44,0,0],[45,0,0],[46,0,0]]},
		{"op":"relu","name":"Extractor.4.2.1.6.0","inputs":[[47,0,0]]},
		{"op":"elemwise_add","name":"Extractor.4.2.2.0","inputs":[[32,0,0],[48,0,0]]},
		{"op":"relu","name":"Extractor.4.2.3.0","inputs":[[49,0,0]]},
		{"op":"null","name":"Extractor.5.1.Weights","inputs":[]},
		{"op":"Convolution","name":"Extractor.5.1","attrs":{"dilate":"(1, 1)","kernel":"(3, 3)","layout":"None","no_bias":"True","num_filter":"128","num_group":"1","pad":"(1, 1)","stride":"(2, 2)"},"inputs":[[50,0,0],[51,0,0]]},
		{"op":"null","name":"Extractor.5.2.Gamma","inputs":[]},
		{"op":"null","name":"Extractor.5.2.Beta","inputs":[]},
		{"op":"null","name":"Extractor.5.2.MovingMean","inputs":[]},
		{"op":"null","name":"Extractor.5.2.MovingVariance","inputs":[]},
		{"op":"BatchNorm","name":"Extractor.5.2","attrs":{"axis":"1","eps":"0.1e-2","fix_gamma":"false","momentum":"0.9e0","use_global_stats":"false"},"inputs":[[52,0,0],[53,0,0],[54,0,0],[55,0,0],[56,0,0]]},
		{"op":"relu","name":"Extractor.5.3.0","inputs":[[57,0,0]]},
		{"op":"null","name":"Extractor.5.4.Weights","inputs":[]},
		{"op":"Convolution","name":"Extractor.5.4","attrs":{"dilate":"(1, 1)","kernel":"(3, 3)","layout":"None","no_bias":"True","num_filter":"128","num_group":"1","pad":"(1, 1)","stride":"(1, 1)"},"inputs":[[58,0,0],[59,0,0]]},
		{"op":"null","name":"Extractor.5.5.Gamma","inputs":[]},
		{"op":"null","name":"Extractor.5.5.Beta","inputs":[]},
		{"op":"null","name":"Extractor.5.5.MovingMean","inputs":[]},
		{"op":"null","name":"Extractor.5.5.MovingVariance","inputs":[]},
		{"op":"BatchNorm","name":"Extractor.5.5","attrs":{"axis":"1","eps":"0.1e-2","fix_gamma":"false","momentum":"0.9e0","use_global_stats":"false"},"inputs":[[60,0,0],[61,0,0],[62,0,0],[63,0,0],[64,0,0]]},
		{"op":"null","name":"Extractor.5.6.Weights","inputs":[]},
		{"op":"Convolution","name":"Extractor.5.6","attrs":{"dilate":"(1, 1)","kernel":"(1, 1)","layout":"None","no_bias":"True","num_filter":"128","num_group":"1","pad":"(0, 0)","stride":"(2, 2)"},"inputs":[[50,0,0],[66,0,0]]},
		{"op":"null","name":"Extractor.5.7.Gamma","inputs":[]},
		{"op":"null","name":"Extractor.5.7.Beta","inputs":[]},
		{"op":"null","name":"Extractor.5.7.MovingMean","inputs":[]},
		{"op":"null","name":"Extractor.5.7.MovingVariance","inputs":[]},
		{"op":"BatchNorm","name":"Extractor.5.7","attrs":{"axis":"1","eps":"0.1e-2","fix_gamma":"false","momentum":"0.9e0","use_global_stats":"false"},"inputs":[[67,0,0],[68,0,0],[69,0,0],[70,0,0],[71,0,0]]},
		{"op":"elemwise_add","name":"Extractor.5.8.0","inputs":[[65,0,0],[72,0,0]]},
		{"op":"relu","name":"Extractor.5.9.0","inputs":[[73,0,0]]},
		{"op":"null","name":"Extractor.6.1.1.1.Weights","inputs":[]},
		{"op":"Convolution","name":"Extractor.6.1.1.1","attrs":{"dilate":"(1, 1)","kernel":"(3, 3)","layout":"None","no_bias":"True","num_filter":"128","num_group":"1","pad":"(1, 1)","stride":"(1, 1)"},"inputs":[[74,0,0],[75,0,0]]},
		{"op":"null","name":"Extractor.6.1.1.2.Gamma","inputs":[]},
		{"op":"null","name":"Extractor.6.1.1.2.Beta","inputs":[]},
		{"op":"null","name":"Extractor.6.1.1.2.MovingMean","inputs":[]},
		{"op":"null","name":"Extractor.6.1.1.2.MovingVariance","inputs":[]},
		{"op":"BatchNorm","name":"Extractor.6.1.1.2","attrs":{"axis":"1","eps":"0.1e-2","fix_gamma":"false","momentum":"0.9e0","use_global_stats":"false"},"inputs":[[76,0,0],[77,0,0],[78,0,0],[79,0,0],[80,0,0]]},
		{"op":"relu","name":"Extractor.6.1.1.3.0","inputs":[[81,0,0]]},
		{"op":"null","name":"Extractor.6.1.1.4.Weights","inputs":[]},
		{"op":"Convolution","name":"Extractor.6.1.1.4","attrs":{"dilate":"(1, 1)","kernel":"(3, 3)","layout":"None","no_bias":"True","num_filter":"128","num_group":"1","pad":"(1, 1)","stride":"(1, 1)"},"inputs":[[82,0,0],[83,0,0]]},
		{"op":"null","name":"Extractor.6.1.1.5.Gamma","inputs":[]},
		{"op":"null","name":"Extractor.6.1.1.5.Beta","inputs":[]},
		{"op":"null","name":"Extractor.6.1.1.5.MovingMean","inputs":[]},
		{"op":"null","name":"Extractor.6.1.1.5.MovingVariance","inputs":[]},
		{"op":"BatchNorm","name":"Extractor.6.1.1.5","attrs":{"axis":"1","eps":"0.1e-2","fix_gamma":"false","momentum":"0.9e0","use_global_stats":"false"},"inputs":[[84,0,0],[85,0,0],[86,0,0],[87,0,0],[88,0,0]]},
		{"op":"relu","name":"Extractor.6.1.1.6.0","inputs":[[89,0,0]]},
		{"op":"elemwise_add","name":"Extractor.6.1.2.0","inputs":[[74,0,0],[90,0,0]]},
		{"op":"relu","name":"Extractor.6.1.3.0","inputs":[[91,0,0]]},
		{"op":"null","name":"Extractor.7.1.Weights","inputs":[]},
		{"op":"Convolution","name":"Extractor.7.1","attrs":{"dilate":"(1, 1)","kernel":"(3, 3)","layout":"None","no_bias":"True","num_filter":"256","num_group":"1","pad":"(1, 1)","stride":"(2, 2)"},"inputs":[[92,0,0],[93,0,0]]},
		{"op":"null","name":"Extractor.7.2.Gamma","inputs":[]},
		{"op":"null","name":"Extractor.7.2.Beta","inputs":[]},
		{"op":"null","name":"Extractor.7.2.MovingMean","inputs":[]},
		{"op":"null","name":"Extractor.7.2.MovingVariance","inputs":[]},
		{"op":"BatchNorm","name":"Extractor.7.2","attrs":{"axis":"1","eps":"0.1e-2","fix_gamma":"false","momentum":"0.9e0","use_global_stats":"false"},"inputs":[[94,0,0],[95,0,0],[96,0,0],[97,0,0],[98,0,0]]},
		{"op":"relu","name":"Extractor.7.3.0","inputs":[[99,0,0]]},
		{"op":"null","name":"Extractor.7.4.Weights","inputs":[]},
		{"op":"Convolution","name":"Extractor.7.4","attrs":{"dilate":"(1, 1)","kernel":"(3, 3)","layout":"None","no_bias":"True","num_filter":"256","num_group":"1","pad":"(1, 1)","stride":"(1, 1)"},"inputs":[[100,0,0],[101,0,0]]},
		{"op":"null","name":"Extractor.7.5.Gamma","inputs":[]},
		{"op":"null","name":"Extractor.7.5.Beta","inputs":[]},
		{"op":"null","name":"Extractor.7.5.MovingMean","inputs":[]},
		{"op":"null","name":"Extractor.7.5.MovingVariance","inputs":[]},
		{"op":"BatchNorm","name":"Extractor.7.5","attrs":{"axis":"1","eps":"0.1e-2","fix_gamma":"false","momentum":"0.9e0","use_global_stats":"false"},"inputs":[[102,0,0],[103,0,0],[104,0,0],[105,0,0],[106,0,0]]},
		{"op":"null","name":"Extractor.7.6.Weights","inputs":[]},
		{"op":"Convolution","name":"Extractor.7.6","attrs":{"dilate":"(1, 1)","kernel":"(1, 1)","layout":"None","no_bias":"True","num_filter":"256","num_group":"1","pad":"(0, 0)","stride":"(2, 2)"},"inputs":[[92,0,0],[108,0,0]]},
		{"op":"null","name":"Extractor.7.7.Gamma","inputs":[]},
		{"op":"null","name":"Extractor.7.7.Beta","inputs":[]},
		{"op":"null","name":"Extractor.7.7.MovingMean","inputs":[]},
		{"op":"null","name":"Extractor.7.7.MovingVariance","inputs":[]},
		{"op":"BatchNorm","name":"Extractor.7.7","attrs":{"axis":"1","eps":"0.1e-2","fix_gamma":"false","momentum":"0.9e0","use_global_stats":"false"},"inputs":[[109,0,0],[110,0,0],[111,0,0],[112,0,0],[113,0,0]]},
		{"op":"elemwise_add","name":"Extractor.7.8.0","inputs":[[107,0,0],[114,0,0]]},
		{"op":"relu","name":"Extractor.7.9.0","inputs":[[115,0,0]]},
		{"op":"null","name":"Extractor.8.1.1.1.Weights","inputs":[]},
		{"op":"Convolution","name":"Extractor.8.1.1.1","attrs":{"dilate":"(1, 1)","kernel":"(3, 3)","layout":"None","no_bias":"True","num_filter":"256","num_group":"1","pad":"(1, 1)","stride":"(1, 1)"},"inputs":[[116,0,0],[117,0,0]]},
		{"op":"null","name":"Extractor.8.1.1.2.Gamma","inputs":[]},
		{"op":"null","name":"Extractor.8.1.1.2.Beta","inputs":[]},
		{"op":"null","name":"Extractor.8.1.1.2.MovingMean","inputs":[]},
		{"op":"null","name":"Extractor.8.1.1.2.MovingVariance","inputs":[]},
		{"op":"BatchNorm","name":"Extractor.8.1.1.2","attrs":{"axis":"1","eps":"0.1e-2","fix_gamma":"false","momentum":"0.9e0","use_global_stats":"false"},"inputs":[[118,0,0],[119,0,0],[120,0,0],[121,0,0],[122,0,0]]},
		{"op":"relu","name":"Extractor.8.1.1.3.0","inputs":[[123,0,0]]},
		{"op":"null","name":"Extractor.8.1.1.4.Weights","inputs":[]},
		{"op":"Convolution","name":"Extractor.8.1.1.4","attrs":{"dilate":"(1, 1)","kernel":"(3, 3)","layout":"None","no_bias":"True","num_filter":"256","num_group":"1","pad":"(1, 1)","stride":"(1, 1)"},"inputs":[[124,0,0],[125,0,0]]},
		{"op":"null","name":"Extractor.8.1.1.5.Gamma","inputs":[]},
		{"op":"null","name":"Extractor.8.1.1.5.Beta","inputs":[]},
		{"op":"null","name":"Extractor.8.1.1.5.MovingMean","inputs":[]},
		{"op":"null","name":"Extractor.8.1.1.5.MovingVariance","inputs":[]},
		{"op":"BatchNorm","name":"Extractor.8.1.1.5","attrs":{"axis":"1","eps":"0.1e-2","fix_gamma":"false","momentum":"0.9e0","use_global_stats":"false"},"inputs":[[126,0,0],[127,0,0],[128,0,0],[129,0,0],[130,0,0]]},
		{"op":"relu","name":"Extractor.8.1.1.6.0","inputs":[[131,0,0]]},
		{"op":"elemwise_add","name":"Extractor.8.1.2.0","inputs":[[116,0,0],[132,0,0]]},
		{"op":"relu","name":"Extractor.8.1.3.0","inputs":[[133,0,0]]},
		{"op":"null","name":"Extractor.9.1.Weights","inputs":[]},
		{"op":"Convolution","name":"Extractor.9.1","attrs":{"dilate":"(1, 1)","kernel":"(3, 3)","layout":"None","no_bias":"True","num_filter":"512","num_group":"1","pad":"(1, 1)","stride":"(2, 2)"},"inputs":[[134,0,0],[135,0,0]]},
		{"op":"null","name":"Extractor.9.2.Gamma","inputs":[]},
		{"op":"null","name":"Extractor.9.2.Beta","inputs":[]},
		{"op":"null","name":"Extractor.9.2.MovingMean","inputs":[]},
		{"op":"null","name":"Extractor.9.2.MovingVariance","inputs":[]},
		{"op":"BatchNorm","name":"Extractor.9.2","attrs":{"axis":"1","eps":"0.1e-2","fix_gamma":"false","momentum":"0.9e0","use_global_stats":"false"},"inputs":[[136,0,0],[137,0,0],[138,0,0],[139,0,0],[140,0,0]]},
		{"op":"relu","name":"Extractor.9.3.0","inputs":[[141,0,0]]},
		{"op":"null","name":"Extractor.9.4.Weights","inputs":[]},
		{"op":"Convolution","name":"Extractor.9.4","attrs":{"dilate":"(1, 1)","kernel":"(3, 3)","layout":"None","no_bias":"True","num_filter":"512","num_group":"1","pad":"(1, 1)","stride":"(1, 1)"},"inputs":[[142,0,0],[143,0,0]]},
		{"op":"null","name":"Extractor.9.5.Gamma","inputs":[]},
		{"op":"null","name":"Extractor.9.5.Beta","inputs":[]},
		{"op":"null","name":"Extractor.9.5.MovingMean","inputs":[]},
		{"op":"null","name":"Extractor.9.5.MovingVariance","inputs":[]},
		{"op":"BatchNorm","name":"Extractor.9.5","attrs":{"axis":"1","eps":"0.1e-2","fix_gamma":"false","momentum":"0.9e0","use_global_stats":"false"},"inputs":[[144,0,0],[145,0,0],[146,0,0],[147,0,0],[148,0,0]]},
		{"op":"null","name":"Extractor.9.6.Weights","inputs":[]},
		{"op":"Convolution","name":"Extractor.9.6","attrs":{"dilate":"(1, 1)","kernel":"(1, 1)","layout":"None","no_bias":"True","num_filter":"512","num_group":"1","pad":"(0, 0)","stride":"(2, 2)"},"inputs":[[134,0,0],[150,0,0]]},
		{"op":"null","name":"Extractor.9.7.Gamma","inputs":[]},
		{"op":"null","name":"Extractor.9.7.Beta","inputs":[]},
		{"op":"null","name":"Extractor.9.7.MovingMean","inputs":[]},
		{"op":"null","name":"Extractor.9.7.MovingVariance","inputs":[]},
		{"op":"BatchNorm","name":"Extractor.9.7","attrs":{"axis":"1","eps":"0.1e-2","fix_gamma":"false","momentum":"0.9e0","use_global_stats":"false"},"inputs":[[151,0,0],[152,0,0],[153,0,0],[154,0,0],[155,0,0]]},
		{"op":"elemwise_add","name":"Extractor.9.8.0","inputs":[[149,0,0],[156,0,0]]},
		{"op":"relu","name":"Extractor.9.9.0","inputs":[[157,0,0]]},
		{"op":"null","name":"Extractor.10.1.1.1.Weights","inputs":[]},
		{"op":"Convolution","name":"Extractor.10.1.1.1","attrs":{"dilate":"(1, 1)","kernel":"(3, 3)","layout":"None","no_bias":"True","num_filter":"512","num_group":"1","pad":"(1, 1)","stride":"(1, 1)"},"inputs":[[158,0,0],[159,0,0]]},
		{"op":"null","name":"Extractor.10.1.1.2.Gamma","inputs":[]},
		{"op":"null","name":"Extractor.10.1.1.2.Beta","inputs":[]},
		{"op":"null","name":"Extractor.10.1.1.2.MovingMean","inputs":[]},
		{"op":"null","name":"Extractor.10.1.1.2.MovingVariance","inputs":[]},
		{"op":"BatchNorm","name":"Extractor.10.1.1.2","attrs":{"axis":"1","eps":"0.1e-2","fix_gamma":"false","momentum":"0.9e0","use_global_stats":"false"},"inputs":[[160,0,0],[161,0,0],[162,0,0],[163,0,0],[164,0,0]]},
		{"op":"relu","name":"Extractor.10.1.1.3.0","inputs":[[165,0,0]]},
		{"op":"null","name":"Extractor.10.1.1.4.Weights","inputs":[]},
		{"op":"Convolution","name":"Extractor.10.1.1.4","attrs":{"dilate":"(1, 1)","kernel":"(3, 3)","layout":"None","no_bias":"True","num_filter":"512","num_group":"1","pad":"(1, 1)","stride":"(1, 1)"},"inputs":[[166,0,0],[167,0,0]]},
		{"op":"null","name":"Extractor.10.1.1.5.Gamma","inputs":[]},
		{"op":"null","name":"Extractor.10.1.1.5.Beta","inputs":[]},
		{"op":"null","name":"Extractor.10.1.1.5.MovingMean","inputs":[]},
		{"op":"null","name":"Extractor.10.1.1.5.MovingVariance","inputs":[]},
		{"op":"BatchNorm","name":"Extractor.10.1.1.5","attrs":{"axis":"1","eps":"0.1e-2","fix_gamma":"false","momentum":"0.9e0","use_global_stats":"false"},"inputs":[[168,0,0],[169,0,0],[170,0,0],[171,0,0],[172,0,0]]},
		{"op":"relu","name":"Extractor.10.1.1.6.0","inputs":[[173,0,0]]},
		{"op":"elemwise_add","name":"Extractor.10.1.2.0","inputs":[[158,0,0],[174,0,0]]},
		{"op":"relu","name":"Extractor.10.1.3.0","inputs":[[175,0,0]]},
		{"op":"null","name":"Detector.Weights","inputs":[]},
		{"op":"null","name":"Detector.Biases","inputs":[]},
		{"op":"Convolution","name":"Detector","attrs":{"dilate":"(1, 1)","kernel":"(1, 1)","layout":"None","no_bias":"False","num_filter":"14","num_group":"1","pad":"(0, 0)","stride":"(1, 1)"},"inputs":[[176,0,0],[177,0,0],[178,0,0]]},
		{"op":"_copy","name":"Output","inputs":[[179,0,0]]}
	],
	"arg_nodes":[0,1,2,3,4,6,8,9,10,11,15,17,18,19,20,23,25,26,27,28,33,35,36,37,38,41,43,44,45,46,51,53,54,55,56,59,61,62,63,64,66,68,69,70,71,75,77,78,79,80,83,85,86,87,88,93,95,96,97,98,101,103,104,105,106,108,110,111,112,113,117,119,120,121,122,125,127,128,129,130,135,137,138,139,140,143,145,146,147,148,150,152,153,154,155,159,161,162,163,164,167,169,170,171,172,177,178],
	"node_row_ptr":[0,1,2,3,4,5,8,9,10,11,12,13,14,17,18,19,20,21,22,23,24,25,28,29,30,31,32,33,34,35,38,39,40,41,42,43,44,45,46,47,50,51,52,53,54,55,56,57,60,61,62,63,64,65,66,67,68,69,72,73,74,75,76,77,78,79,82,83,84,85,86,87,88,91,92,93,94,95,96,97,98,99,102,103,104,105,106,107,108,109,112,113,114,115,116,117,118,119,120,121,124,125,126,127,128,129,130,131,134,135,136,137,138,139,140,143,144,145,146,147,148,149,150,151,154,155,156,157,158,159,160,161,164,165,166,167,168,169,170,171,172,173,176,177,178,179,180,181,182,183,186,187,188,189,190,191,192,195,196,197,198,199,200,201,202,203,206,207,208,209,210,211,212,213,216,217,218,219,220,221,222,223],
	"heads":[
		[180,0,0]
	],
	"attrs":{
		"mxnet_version":["int",10001]
	}
}